…
in: ziffer_raw/4_4_digit3_20210424-160317.jpg  -  out: ziffer_resize/4_4_digit3_20210424-160317.jpg
in: ziffer_raw/7_7_nt6_20210626-043348.jpg  -  out: ziffer_resize/7_7_nt6_20210626-043348.jpg
in: ziffer_raw/7_7_digit4_20210414-180055.jpg  -  out: ziffer_resize/7_7_digit4_20210414-180055.jpg
in: ziffer_raw/7.0_github417.jpg  -  out: ziffer_resize/7.0_github417.jpg
dig-s0
a_output_actual/dig-s0
File Exists
Model: "sequential"
_________________________________________________________________
 Layer (type)                Output Shape              Param #   
=================================================================
 batch_normalization (BatchN  (None, 32, 20, 3)        12        
 ormalization)                                                   
                                                                 
 conv2d (Conv2D)             (None, 32, 20, 32)        896       
                                                                 
 max_pooling2d (MaxPooling2D  (None, 16, 10, 32)       0         
 )                                                               
                                                                 
 conv2d_1 (Conv2D)           (None, 16, 10, 64)        18496     
                                                                 
 max_pooling2d_1 (MaxPooling  (None, 8, 5, 64)         0         
 2D)                                                             
                                                                 
 conv2d_2 (Conv2D)           (None, 8, 5, 64)          36928     
                                                                 
 max_pooling2d_2 (MaxPooling  (None, 4, 2, 64)         0         
 2D)                                                             
                                                                 
 flatten (Flatten)           (None, 512)               0         
                                                                 
 dense (Dense)               (None, 512)               262656    
                                                                 
 dense_1 (Dense)             (None, 11)                5643      
                                                                 
=================================================================
Total params: 324,631
Trainable params: 324,625
Non-trainable params: 6
_________________________________________________________________
1193
(1193, 32, 20, 3)
(1193, 11)
(954, 32, 20, 3)
(239, 32, 20, 3)
Epoch 1/100
  1/239 [..............................] -
…
239/239 [==============================] - 2s 8ms/step - loss: 0.0031 - accuracy: 0.9979 - val_loss: 1.2922e-06 - val_accuracy: 1.0000
dig-s0
File Exists
ziffer_resize/0_0_nt1_20210626-090405.jpg 0 -1
ziffer_resize/3.0_lcd.jpg 3 -1
dig-s1
a_output_actual/dig-s1
File Exists
Model: "sequential_1"
_________________________________________________________________
 Layer (type)                Output Shape              Param #   
=================================================================
 batch_normalization_1 (Batc  (None, 32, 20, 3)        12        
 hNormalization)                                                 
                                                                 
 conv2d_3 (Conv2D)           (None, 32, 20, 32)        896       
                                                                 
 max_pooling2d_3 (MaxPooling  (None, 16, 10, 32)       0         
 2D)                                                             
                                                                 
 conv2d_4 (Conv2D)           (None, 16, 10, 64)        18496     
                                                                 
 max_pooling2d_4 (MaxPooling  (None, 8, 5, 64)         0         
 2D)                                                             
                                                                 
 conv2d_5 (Conv2D)           (None, 8, 5, 64)          36928     
                                                                 
 max_pooling2d_5 (MaxPooling  (None, 4, 2, 64)         0         
 2D)                                                             
                                                                 
 flatten_1 (Flatten)         (None, 512)               0         
                                                                 
 dense_2 (Dense)             (None, 256)               131328    
                                                                 
 dense_3 (Dense)             (None, 11)                2827      
                                                                 
=================================================================
Total params: 190,487
Trainable params: 190,481
Non-trainable params: 6
_________________________________________________________________
1193
(1193, 32, 20, 3)
(1193, 11)
(954, 32, 20, 3)
(239, 32, 20, 3)
Epoch 1/100
  1/239 [..............................] -
…
20220311	1193	96	0.01037526410073042	0.02836155705153942
20220311	1193	97	0.005757548380643129	0.1415172666311264
20220311	1193	98	0.00243069208227098	0.00011001590610248968
20220311	1193	99	0.0033557708375155926	0.1264391988515854
20220311	1193	100	3.536432996043004e-05	0.004286596085876226
dig-s1
File Exists
ziffer_resize/8_litre2_20220306-184855.jpg 8 0
dig-s2
a_output_actual/dig-s2
File Exists
Model: "sequential_2"
_________________________________________________________________
 Layer (type)                Output Shape              Param #   
=================================================================
 batch_normalization_2 (Batc  (None, 32, 20, 3)        12        
 hNormalization)                                                 
                                                                 
 conv2d_6 (Conv2D)           (None, 32, 20, 32)        896       
                                                                 
 max_pooling2d_6 (MaxPooling  (None, 16, 10, 32)       0         
 2D)                                                             
                                                                 
 conv2d_7 (Conv2D)           (None, 16, 10, 32)        9248      
                                                                 
 max_pooling2d_7 (MaxPooling  (None, 8, 5, 32)         0         
 2D)                                                             
                                                                 
 conv2d_8 (Conv2D)           (None, 8, 5, 32)          9248      
                                                                 
 max_pooling2d_8 (MaxPooling  (None, 4, 2, 32)         0         
 2D)                                                             
                                                                 
 flatten_2 (Flatten)         (None, 256)               0         
                                                                 
 dense_4 (Dense)             (None, 256)               65792     
                                                                 
 dense_5 (Dense)             (None, 11)                2827      
                                                                 
=================================================================
Total params: 88,023
Trainable params: 88,017
Non-trainable params: 6
_________________________________________________________________
1193
(1193, 32, 20, 3)
(1193, 11)
(954, 32, 20, 3)
(239, 32, 20, 3)
Epoch 1/100
  1/239 [..............................] - E
…
20220311	1193	98	0.010298097506165504	0.02349751815199852
20220311	1193	99	0.00719958171248436	0.0028886760119348764
20220311	1193	100	0.0007046087412163615	0.03409861400723457
dig-s2
File Exists
ziffer_resize/6_dig5_20220106-020809.jpg 6 0
ziffer_resize/6_dig6_20220106-071435.jpg 6 0
ziffer_resize/7_10_ht6_20210703-133250.jpg 7 -1
dig-s3
a_output_actual/dig-s3
File Exists
Model: "sequential_3"
_________________________________________________________________
 Layer (type)                Output Shape              Param #   
=================================================================
 batch_normalization_3 (Batc  (None, 32, 20, 3)        12        
 hNormalization)                                                 
                                                                 
 conv2d_9 (Conv2D)           (None, 32, 20, 32)        896       
                                                                 
 max_pooling2d_9 (MaxPooling  (None, 16, 10, 32)       0         
 2D)                                                             
                                                                 
 conv2d_10 (Conv2D)          (None, 16, 10, 32)        9248      
                                                                 
 max_pooling2d_10 (MaxPoolin  (None, 8, 5, 32)         0         
 g2D)                                                            
                                                                 
 conv2d_11 (Conv2D)          (None, 8, 5, 32)          9248      
                                                                 
 max_pooling2d_11 (MaxPoolin  (None, 4, 2, 32)         0         
 g2D)                                                            
                                                                 
 flatten_3 (Flatten)         (None, 256)               0         
                                                                 
 dense_6 (Dense)             (None, 128)               32896     
                                                                 
 dense_7 (Dense)             (None, 11)                1419      
                                                                 
=================================================================
Total params: 53,719
Trainable params: 53,713
Non-trainable params: 6
_________________________________________________________________
1193
(1193, 32, 20, 3)
(1193, 11)
(954, 32, 20, 3)
(239, 32, 20, 3)
Epoch 1/100
  1/239 [..............................] - E
…
