…
in: ziffer_raw/4_4_digit3_20210424-160317.jpg  -  out: ziffer_resize/4_4_digit3_20210424-160317.jpg
in: ziffer_raw/7_7_nt6_20210626-043348.jpg  -  out: ziffer_resize/7_7_nt6_20210626-043348.jpg
in: ziffer_raw/7_7_digit4_20210414-180055.jpg  -  out: ziffer_resize/7_7_digit4_20210414-180055.jpg
in: ziffer_raw/7.0_github417.jpg  -  out: ziffer_resize/7.0_github417.jpg
dig-s0
a_output_actual/dig-s0
File Exists
Model: "sequential"
_________________________________________________________________
 Layer (type)                Output Shape              Param #   
=================================================================
 batch_normalization (BatchN  (None, 32, 20, 3)        12        
 ormalization)                                                   
                                                                 
 conv2d (Conv2D)             (None, 32, 20, 32)        896       
                                                                 
 max_pooling2d (MaxPooling2D  (None, 16, 10, 32)       0         
 )                                                               
                                                                 
 conv2d_1 (Conv2D)           (None, 16, 10, 64)        18496     
                                                                 
 max_pooling2d_1 (MaxPooling  (None, 8, 5, 64)         0         
 2D)                                                             
                                                                 
 conv2d_2 (Conv2D)           (None, 8, 5, 64)          36928     
                                                                 
 max_pooling2d_2 (MaxPooling  (None, 4, 2, 64)         0         
 2D)                                                             
                                                                 
 flatten (Flatten)           (None, 512)               0         
                                                                 
 dense (Dense)               (None, 512)               262656    
                                                                 
 dense_1 (Dense)             (None, 11)                5643      
                                                                 
=================================================================
Total params: 324,631
Trainable params: 324,625
Non-trainable params: 6
_________________________________________________________________
1193
(1193, 32, 20, 3)
(1193, 11)
(954, 32, 20, 3)
(239, 32, 20, 3)
Epoch 1/100
  1/239 [..............................] -
…
ziffer_resize/4_0_ht6_20210627-212552.jpg 4 -1
ziffer_resize/4_0_ht6_20210627-222846.jpg 4 -1
ziffer_resize/4_10_ht6_20210703-070449.jpg 4 -1
ziffer_resize/4_1_ht6_20210627-202210.jpg 4 -1
ziffer_resize/5_5_ROI4_20210418-173416.jpg 5 6
ziffer_resize/5_5_ht7_20210628-132602.jpg 5 9
ziffer_resize/9_D8_2020-08-20_11-32-19.jpg 9 -1
dig-s1
a_output_actual/dig-s1
File Exists
Model: "sequential_1"
_________________________________________________________________
 Layer (type)                Output Shape              Param #   
=================================================================
 batch_normalization_1 (Batc  (None, 32, 20, 3)        12        
 hNormalization)                                                 
                                                                 
 conv2d_3 (Conv2D)           (None, 32, 20, 32)        896       
                                                                 
 max_pooling2d_3 (MaxPooling  (None, 16, 10, 32)       0         
 2D)                                                             
                                                                 
 conv2d_4 (Conv2D)           (None, 16, 10, 64)        18496     
                                                                 
 max_pooling2d_4 (MaxPooling  (None, 8, 5, 64)         0         
 2D)                                                             
                                                                 
 conv2d_5 (Conv2D)           (None, 8, 5, 64)          36928     
                                                                 
 max_pooling2d_5 (MaxPooling  (None, 4, 2, 64)         0         
 2D)                                                             
                                                                 
 flatten_1 (Flatten)         (None, 512)               0         
                                                                 
 dense_2 (Dense)             (None, 256)               131328    
                                                                 
 dense_3 (Dense)             (None, 11)                2827      
                                                                 
=================================================================
Total params: 190,487
Trainable params: 190,481
Non-trainable params: 6
_________________________________________________________________
1193
(1193, 32, 20, 3)
(1193, 11)
(954, 32, 20, 3)
(239, 32, 20, 3)
Epoch 1/100
  1/239 [..............................] -
…
20220311	1193	96	0.006980990990996361	0.1381838619709015
20220311	1193	97	0.025552352890372276	0.16997575759887695
20220311	1193	98	2.7609382868831744e-06	0.06536772102117538
20220311	1193	99	5.308289473759942e-05	0.11071226000785828
20220311	1193	100	0.00020668047363869846	0.06502881646156311
dig-s1
File Exists
dig-s2
a_output_actual/dig-s2
File Exists
Model: "sequential_2"
_________________________________________________________________
 Layer (type)                Output Shape              Param #   
=================================================================
 batch_normalization_2 (Batc  (None, 32, 20, 3)        12        
 hNormalization)                                                 
                                                                 
 conv2d_6 (Conv2D)           (None, 32, 20, 32)        896       
                                                                 
 max_pooling2d_6 (MaxPooling  (None, 16, 10, 32)       0         
 2D)                                                             
                                                                 
 conv2d_7 (Conv2D)           (None, 16, 10, 32)        9248      
                                                                 
 max_pooling2d_7 (MaxPooling  (None, 8, 5, 32)         0         
 2D)                                                             
                                                                 
 conv2d_8 (Conv2D)           (None, 8, 5, 32)          9248      
                                                                 
 max_pooling2d_8 (MaxPooling  (None, 4, 2, 32)         0         
 2D)                                                             
                                                                 
 flatten_2 (Flatten)         (None, 256)               0         
                                                                 
 dense_4 (Dense)             (None, 256)               65792     
                                                                 
 dense_5 (Dense)             (None, 11)                2827      
                                                                 
=================================================================
Total params: 88,023
Trainable params: 88,017
Non-trainable params: 6
_________________________________________________________________
1193
(1193, 32, 20, 3)
(1193, 11)
(954, 32, 20, 3)
(239, 32, 20, 3)
Epoch 1/100
  1/239 [..............................] - E
…
20220311	1193	100	0.016750510782003403	0.16151967644691467
dig-s2
File Exists
ziffer_resize/1.0_dig1_20211012-012538.jpg 1 7
ziffer_resize/4_litre1_20220306-100017.jpg 4 5
ziffer_resize/4_litre1_20220309-135416.jpg 4 5
ziffer_resize/6_dig5_20220106-020809.jpg 6 0
ziffer_resize/NaN_6_dig6_20210720-121946.jpg -1 4
ziffer_resize/NaN_tre1_20220309-063747.jpg -1 3
dig-s3
a_output_actual/dig-s3
File Exists
Model: "sequential_3"
_________________________________________________________________
 Layer (type)                Output Shape              Param #   
=================================================================
 batch_normalization_3 (Batc  (None, 32, 20, 3)        12        
 hNormalization)                                                 
                                                                 
 conv2d_9 (Conv2D)           (None, 32, 20, 32)        896       
                                                                 
 max_pooling2d_9 (MaxPooling  (None, 16, 10, 32)       0         
 2D)                                                             
                                                                 
 conv2d_10 (Conv2D)          (None, 16, 10, 32)        9248      
                                                                 
 max_pooling2d_10 (MaxPoolin  (None, 8, 5, 32)         0         
 g2D)                                                            
                                                                 
 conv2d_11 (Conv2D)          (None, 8, 5, 32)          9248      
                                                                 
 max_pooling2d_11 (MaxPoolin  (None, 4, 2, 32)         0         
 g2D)                                                            
                                                                 
 flatten_3 (Flatten)         (None, 256)               0         
                                                                 
 dense_6 (Dense)             (None, 128)               32896     
                                                                 
 dense_7 (Dense)             (None, 11)                1419      
                                                                 
=================================================================
Total params: 53,719
Trainable params: 53,713
Non-trainable params: 6
_________________________________________________________________
1193
(1193, 32, 20, 3)
(1193, 11)
(954, 32, 20, 3)
(239, 32, 20, 3)
Epoch 1/100
  1/239 [..............................] - E
…
